…
2020-06-16 08:25:42.050347: I tensorflow/core/platform/cpu_feature_guard.cc:143] Your CPU supports instructions that this TensorFlow binary was not compiled to use: AVX2 FMA
2020-06-16 08:25:42.070261: I tensorflow/compiler/xla/service/service.cc:168] XLA service 0x7f8625522f70 initialized for platform Host (this does not guarantee that XLA will be used). Devices:
2020-06-16 08:25:42.070279: I tensorflow/compiler/xla/service/service.cc:176]   StreamExecutor device (0): Host, Default Version
Model: "sequential"
_________________________________________________________________
Layer (type)                 Output Shape              Param #   
=================================================================
conv2d (Conv2D)              (None, 148, 148, 64)      1792      
_________________________________________________________________
max_pooling2d (MaxPooling2D) (None, 74, 74, 64)        0         
_________________________________________________________________
conv2d_1 (Conv2D)            (None, 72, 72, 64)        36928     
_________________________________________________________________
max_pooling2d_1 (MaxPooling2 (None, 36, 36, 64)        0         
_________________________________________________________________
conv2d_2 (Conv2D)            (None, 34, 34, 128)       73856     
_________________________________________________________________
max_pooling2d_2 (MaxPooling2 (None, 17, 17, 128)       0         
_________________________________________________________________
conv2d_3 (Conv2D)            (None, 15, 15, 128)       147584    
_________________________________________________________________
max_pooling2d_3 (MaxPooling2 (None, 7, 7, 128)         0         
_________________________________________________________________
flatten (Flatten)            (None, 6272)              0         
_________________________________________________________________
dropout (Dropout)            (None, 6272)              0         
_________________________________________________________________
dense (Dense)                (None, 512)               3211776   
_________________________________________________________________
dense_1 (Dense)              (None, 3)                 1539      
=================================================================
Total params: 3,473,475
Trainable params: 3,473,475
Non-trainable params: 0
_________________________________________________________________
Epoch 1/25
20/20 [==============================] - 90s 5s/step - loss: 1.5871 - accuracy: 0.3377 - val_loss: 1.0847 - val_accuracy: 0.3925
Epoch 2/25
20/20 [==============================] - 100s 5s/step - loss: 1.1387 - accuracy: 0.3623 - val_loss: 1.0940 - val_accuracy: 0.3333
…
